…
      "metadata": {
        "id": "cEmpR2syZA1L"
      },
      "source": [
        "# Training the models"
      ]
    },
    {
      "cell_type": "code",
      "execution_count": 19,
      "metadata": {},
      "outputs": [
        {
          "name": "stdout",
          "output_type": "stream",
          "text": [
            "----------------------------------------------------------------\n",
            "        Layer (type)               Output Shape         Param #\n",
            "================================================================\n",
            "            Conv2d-1           [-1, 16, 32, 32]             448\n",
            "       BatchNorm2d-2           [-1, 16, 32, 32]              32\n",
            "              ReLU-3           [-1, 16, 32, 32]               0\n",
            "            Conv2d-4          [-1, 128, 16, 16]          18,560\n",
            "       BatchNorm2d-5          [-1, 128, 16, 16]             256\n",
            "              ReLU-6          [-1, 128, 16, 16]               0\n",
            "         Dropout2d-7          [-1, 128, 16, 16]               0\n",
            "            Conv2d-8          [-1, 128, 16, 16]         147,584\n",
            "            Conv2d-9          [-1, 128, 16, 16]           2,176\n",
            "      BatchNorm2d-10          [-1, 128, 16, 16]             256\n",
            "             ReLU-11          [-1, 128, 16, 16]               0\n",
            "           Conv2d-12          [-1, 128, 16, 16]         147,584\n",
            "      BatchNorm2d-13          [-1, 128, 16, 16]             256\n",
            "             ReLU-14          [-1, 128, 16, 16]               0\n",
            "        Dropout2d-15          [-1, 128, 16, 16]               0\n",
            "           Conv2d-16          [-1, 128, 16, 16]         147,584\n",
            "      BatchNorm2d-17          [-1, 128, 16, 16]             256\n",
            "             ReLU-18          [-1, 128, 16, 16]               0\n",
            "           Conv2d-19            [-1, 256, 8, 8]         295,168\n",
            "      BatchNorm2d-20            [-1, 256, 8, 8]             512\n",
            "             ReLU-21            [-1, 256, 8, 8]               0\n",
            "        Dropout2d-22            [-1, 256, 8, 8]               0\n",
            "           Conv2d-23            [-1, 256, 8, 8]         590,080\n",
            "           Conv2d-24            [-1, 256, 8, 8]          33,024\n",
            "      BatchNorm2d-25            [-1, 256, 8, 8]             512\n",
            "             ReLU-26            [-1, 256, 8, 8]               0\n",
            "           Conv2d-27            [-1, 256, 8, 8]         590,080\n",
            "      BatchNorm2d-28            [-1, 256, 8, 8]             512\n",
            "             ReLU-29            [-1, 256, 8, 8]               0\n",
            "        Dropout2d-30            [-1, 256, 8, 8]               0\n",
            "           Conv2d-31            [-1, 256, 8, 8]         590,080\n",
            "      BatchNorm2d-32            [-1, 256, 8, 8]             512\n",
            "             ReLU-33            [-1, 256, 8, 8]               0\n",
            "           Conv2d-34            [-1, 512, 4, 4]       1,180,160\n",
            "      BatchNorm2d-35            [-1, 512, 4, 4]           1,024\n",
            "             ReLU-36            [-1, 512, 4, 4]               0\n",
            "        Dropout2d-37            [-1, 512, 4, 4]               0\n",
            "           Conv2d-38            [-1, 512, 4, 4]       2,359,808\n",
            "           Conv2d-39            [-1, 512, 4, 4]         131,584\n",
            "      BatchNorm2d-40            [-1, 512, 4, 4]           1,024\n",
            "             ReLU-41            [-1, 512, 4, 4]               0\n",
            "           Conv2d-42            [-1, 512, 4, 4]       2,359,808\n",
            "      BatchNorm2d-43            [-1, 512, 4, 4]           1,024\n",
            "             ReLU-44            [-1, 512, 4, 4]               0\n",
            "        Dropout2d-45            [-1, 512, 4, 4]               0\n",
            "           Conv2d-46            [-1, 512, 4, 4]       2,359,808\n",
            "      BatchNorm2d-47            [-1, 512, 4, 4]           1,024\n",
            "             ReLU-48            [-1, 512, 4, 4]               0\n",
            "        AvgPool2d-49            [-1, 512, 1, 1]               0\n",
            "           Linear-50                  [-1, 512]         262,656\n",
            "             ReLU-51                  [-1, 512]               0\n",
            "        Dropout1d-52                  [-1, 512]               0\n",
            "           Linear-53                  [-1, 100]          51,300\n",
            "================================================================\n",
            "Total params: 11,274,692\n",
            "Trainable params: 11,274,692\n",
            "Non-trainable params: 0\n",
            "----------------------------------------------------------------\n",
            "Input size (MB): 0.01\n",
            "Forward/backward pass size (MB): 6.95\n",
            "Params size (MB): 43.01\n",
…
        "        x = self.fc(x)\n",
        "        # x.shape = B x num_classes\n",
        "\n",
        "        return x"
      ]
    },
    {
      "cell_type": "code",
      "execution_count": 28,
      "metadata": {},
      "outputs": [
        {
          "name": "stdout",
          "output_type": "stream",
          "text": [
            "----------------------------------------------------------------\n",
            "        Layer (type)               Output Shape         Param #\n",
            "================================================================\n",
            "            Conv2d-1           [-1, 16, 32, 32]             448\n",
            "       BatchNorm2d-2           [-1, 16, 32, 32]              32\n",
            "              ReLU-3           [-1, 16, 32, 32]               0\n",
            "            Conv2d-4          [-1, 128, 16, 16]          18,560\n",
            "       BatchNorm2d-5          [-1, 128, 16, 16]             256\n",
            "              ReLU-6          [-1, 128, 16, 16]               0\n",
            "         Dropout2d-7          [-1, 128, 16, 16]               0\n",
            "            Conv2d-8           [-1, 64, 16, 16]          73,792\n",
            "            Conv2d-9          [-1, 576, 16, 16]          74,304\n",
            "          Softmax-10          [-1, 1, 256, 256]               0\n",
            "           Conv2d-11           [-1, 64, 16, 16]           4,160\n",
            "  AttentionConv2d-12          [-1, 128, 16, 16]               0\n",
            "           Conv2d-13          [-1, 128, 16, 16]           2,176\n",
            "      BatchNorm2d-14          [-1, 128, 16, 16]             256\n",
            "             ReLU-15          [-1, 128, 16, 16]               0\n",
            "           Conv2d-16          [-1, 128, 16, 16]         147,584\n",
            "      BatchNorm2d-17          [-1, 128, 16, 16]             256\n",
            "             ReLU-18          [-1, 128, 16, 16]               0\n",
            "        Dropout2d-19          [-1, 128, 16, 16]               0\n",
            "           Conv2d-20           [-1, 64, 16, 16]          73,792\n",
            "           Conv2d-21          [-1, 576, 16, 16]          74,304\n",
            "          Softmax-22          [-1, 1, 256, 256]               0\n",
            "           Conv2d-23           [-1, 64, 16, 16]           4,160\n",
            "  AttentionConv2d-24          [-1, 128, 16, 16]               0\n",
            "      BatchNorm2d-25          [-1, 128, 16, 16]             256\n",
            "             ReLU-26          [-1, 128, 16, 16]               0\n",
            "           Conv2d-27            [-1, 256, 8, 8]         295,168\n",
            "      BatchNorm2d-28            [-1, 256, 8, 8]             512\n",
            "             ReLU-29            [-1, 256, 8, 8]               0\n",
            "        Dropout2d-30            [-1, 256, 8, 8]               0\n",
            "           Conv2d-31            [-1, 128, 8, 8]         295,040\n",
            "           Conv2d-32           [-1, 1152, 8, 8]         296,064\n",
            "          Softmax-33            [-1, 2, 64, 64]               0\n",
            "           Conv2d-34            [-1, 128, 8, 8]          16,512\n",
            "  AttentionConv2d-35            [-1, 256, 8, 8]               0\n",
            "           Conv2d-36            [-1, 256, 8, 8]          33,024\n",
            "      BatchNorm2d-37            [-1, 256, 8, 8]             512\n",
            "             ReLU-38            [-1, 256, 8, 8]               0\n",
            "           Conv2d-39            [-1, 256, 8, 8]         590,080\n",
            "      BatchNorm2d-40            [-1, 256, 8, 8]             512\n",
            "             ReLU-41            [-1, 256, 8, 8]               0\n",
            "        Dropout2d-42            [-1, 256, 8, 8]               0\n",
            "           Conv2d-43            [-1, 128, 8, 8]         295,040\n",
            "           Conv2d-44           [-1, 1152, 8, 8]         296,064\n",
            "          Softmax-45            [-1, 2, 64, 64]               0\n",
            "           Conv2d-46            [-1, 128, 8, 8]          16,512\n",
            "  AttentionConv2d-47            [-1, 256, 8, 8]               0\n",
            "      BatchNorm2d-48            [-1, 256, 8, 8]             512\n",
            "             ReLU-49            [-1, 256, 8, 8]               0\n",
            "           Conv2d-50            [-1, 512, 4, 4]       1,180,160\n",
            "      BatchNorm2d-51            [-1, 512, 4, 4]           1,024\n",
            "             ReLU-52            [-1, 512, 4, 4]               0\n",
            "        Dropout2d-53            [-1, 512, 4, 4]               0\n",
            "           Conv2d-54            [-1, 256, 4, 4]       1,179,904\n",
            "           Conv2d-55           [-1, 2304, 4, 4]       1,181,952\n",
            "          Softmax-56            [-1, 4, 16, 16]               0\n",
            "           Conv2d-57            [-1, 256, 4, 4]          65,792\n",
            "  AttentionConv2d-58            [-1, 512, 4, 4]               0\n",
            "           Conv2d-59            [-1, 512, 4, 4]         131,584\n",
            "      BatchNorm2d-60            [-1, 512, 4, 4]           1,024\n",
            "             ReLU-61            [-1, 512, 4, 4]               0\n",
            "           Conv2d-62            [-1, 512, 4, 4]       2,359,808\n",
            "      BatchNorm2d-63            [-1, 512, 4, 4]           1,024\n",
            "             ReLU-64            [-1, 512, 4, 4]               0\n",
            "        Dropout2d-65            [-1, 512, 4, 4]               0\n",
            "           Conv2d-66            [-1, 256, 4, 4]       1,179,904\n",
            "           Conv2d-67           [-1, 2304, 4, 4]       1,181,952\n",
            "          Softmax-68            [-1, 4, 16, 16]               0\n",
            "           Conv2d-69            [-1, 256, 4, 4]          65,792\n",
            "  AttentionConv2d-70            [-1, 512, 4, 4]               0\n",
            "      BatchNorm2d-71            [-1, 512, 4, 4]           1,024\n",
            "             ReLU-72            [-1, 512, 4, 4]               0\n",
            "        AvgPool2d-73            [-1, 512, 1, 1]               0\n",
            "           Linear-74                  [-1, 512]         262,656\n",
            "             ReLU-75                  [-1, 512]               0\n",
            "        Dropout1d-76                  [-1, 512]               0\n",
            "           Linear-77                  [-1, 100]          51,300\n",
            "================================================================\n",
            "Total params: 11,454,788\n",
            "Trainable params: 11,454,788\n",
            "Non-trainable params: 0\n",
            "----------------------------------------------------------------\n",
            "Input size (MB): 0.01\n",
            "Forward/backward pass size (MB): 12.91\n",
            "Params size (MB): 43.70\n",
…
        "        x = self.fc(x)\n",
        "        # x.shape = B x num_classes\n",
        "\n",
        "        return x"
      ]
    },
    {
      "cell_type": "code",
      "execution_count": 36,
      "metadata": {},
      "outputs": [
        {
          "name": "stdout",
          "output_type": "stream",
          "text": [
            "----------------------------------------------------------------\n",
            "        Layer (type)               Output Shape         Param #\n",
            "================================================================\n",
            "            Conv2d-1           [-1, 16, 32, 32]             448\n",
            "       BatchNorm2d-2           [-1, 16, 32, 32]              32\n",
            "              ReLU-3           [-1, 16, 32, 32]               0\n",
            "            Conv2d-4          [-1, 128, 16, 16]          18,560\n",
            "       BatchNorm2d-5          [-1, 128, 16, 16]             256\n",
            "              ReLU-6          [-1, 128, 16, 16]               0\n",
            "         Dropout2d-7          [-1, 128, 16, 16]               0\n",
            "            Conv2d-8           [-1, 64, 16, 16]          73,792\n",
            "            Conv2d-9          [-1, 576, 16, 16]          74,304\n",
            "          Softmax-10          [-1, 1, 256, 256]               0\n",
            "          Softmax-11          [-1, 1, 256, 256]               0\n",
            "           Conv2d-12           [-1, 64, 16, 16]           4,160\n",
            "LinearAttentionConv2d-13          [-1, 128, 16, 16]               0\n",
            "           Conv2d-14          [-1, 128, 16, 16]           2,176\n",
            "      BatchNorm2d-15          [-1, 128, 16, 16]             256\n",
            "             ReLU-16          [-1, 128, 16, 16]               0\n",
            "           Conv2d-17          [-1, 128, 16, 16]         147,584\n",
            "      BatchNorm2d-18          [-1, 128, 16, 16]             256\n",
            "             ReLU-19          [-1, 128, 16, 16]               0\n",
            "        Dropout2d-20          [-1, 128, 16, 16]               0\n",
            "           Conv2d-21           [-1, 64, 16, 16]          73,792\n",
            "           Conv2d-22          [-1, 576, 16, 16]          74,304\n",
            "          Softmax-23          [-1, 1, 256, 256]               0\n",
            "          Softmax-24          [-1, 1, 256, 256]               0\n",
            "           Conv2d-25           [-1, 64, 16, 16]           4,160\n",
            "LinearAttentionConv2d-26          [-1, 128, 16, 16]               0\n",
            "      BatchNorm2d-27          [-1, 128, 16, 16]             256\n",
            "             ReLU-28          [-1, 128, 16, 16]               0\n",
            "           Conv2d-29            [-1, 256, 8, 8]         295,168\n",
            "      BatchNorm2d-30            [-1, 256, 8, 8]             512\n",
            "             ReLU-31            [-1, 256, 8, 8]               0\n",
            "        Dropout2d-32            [-1, 256, 8, 8]               0\n",
            "           Conv2d-33            [-1, 128, 8, 8]         295,040\n",
            "           Conv2d-34           [-1, 1152, 8, 8]         296,064\n",
            "          Softmax-35           [-1, 2, 256, 64]               0\n",
            "          Softmax-36           [-1, 2, 256, 64]               0\n",
            "           Conv2d-37            [-1, 128, 8, 8]          16,512\n",
            "LinearAttentionConv2d-38            [-1, 256, 8, 8]               0\n",
            "           Conv2d-39            [-1, 256, 8, 8]          33,024\n",
            "      BatchNorm2d-40            [-1, 256, 8, 8]             512\n",
            "             ReLU-41            [-1, 256, 8, 8]               0\n",
            "           Conv2d-42            [-1, 256, 8, 8]         590,080\n",
            "      BatchNorm2d-43            [-1, 256, 8, 8]             512\n",
            "             ReLU-44            [-1, 256, 8, 8]               0\n",
            "        Dropout2d-45            [-1, 256, 8, 8]               0\n",
            "           Conv2d-46            [-1, 128, 8, 8]         295,040\n",
            "           Conv2d-47           [-1, 1152, 8, 8]         296,064\n",
            "          Softmax-48           [-1, 2, 256, 64]               0\n",
            "          Softmax-49           [-1, 2, 256, 64]               0\n",
            "           Conv2d-50            [-1, 128, 8, 8]          16,512\n",
            "LinearAttentionConv2d-51            [-1, 256, 8, 8]               0\n",
            "      BatchNorm2d-52            [-1, 256, 8, 8]             512\n",
            "             ReLU-53            [-1, 256, 8, 8]               0\n",
            "           Conv2d-54            [-1, 512, 4, 4]       1,180,160\n",
            "      BatchNorm2d-55            [-1, 512, 4, 4]           1,024\n",
            "             ReLU-56            [-1, 512, 4, 4]               0\n",
            "        Dropout2d-57            [-1, 512, 4, 4]               0\n",
            "           Conv2d-58            [-1, 256, 4, 4]       1,179,904\n",
            "           Conv2d-59           [-1, 2304, 4, 4]       1,181,952\n",
            "          Softmax-60           [-1, 4, 256, 16]               0\n",
            "          Softmax-61           [-1, 4, 256, 16]               0\n",
            "           Conv2d-62            [-1, 256, 4, 4]          65,792\n",
            "LinearAttentionConv2d-63            [-1, 512, 4, 4]               0\n",
            "           Conv2d-64            [-1, 512, 4, 4]         131,584\n",
            "      BatchNorm2d-65            [-1, 512, 4, 4]           1,024\n",
            "             ReLU-66            [-1, 512, 4, 4]               0\n",
            "           Conv2d-67            [-1, 512, 4, 4]       2,359,808\n",
            "      BatchNorm2d-68            [-1, 512, 4, 4]           1,024\n",
            "             ReLU-69            [-1, 512, 4, 4]               0\n",
            "        Dropout2d-70            [-1, 512, 4, 4]               0\n",
            "           Conv2d-71            [-1, 256, 4, 4]       1,179,904\n",
            "           Conv2d-72           [-1, 2304, 4, 4]       1,181,952\n",
            "          Softmax-73           [-1, 4, 256, 16]               0\n",
            "          Softmax-74           [-1, 4, 256, 16]               0\n",
            "           Conv2d-75            [-1, 256, 4, 4]          65,792\n",
            "LinearAttentionConv2d-76            [-1, 512, 4, 4]               0\n",
            "      BatchNorm2d-77            [-1, 512, 4, 4]           1,024\n",
            "             ReLU-78            [-1, 512, 4, 4]               0\n",
            "        AvgPool2d-79            [-1, 512, 1, 1]               0\n",
            "           Linear-80                  [-1, 512]         262,656\n",
            "             ReLU-81                  [-1, 512]               0\n",
            "        Dropout1d-82                  [-1, 512]               0\n",
            "           Linear-83                  [-1, 100]          51,300\n",
            "================================================================\n",
            "Total params: 11,454,788\n",
            "Trainable params: 11,454,788\n",
            "Non-trainable params: 0\n",
            "----------------------------------------------------------------\n",
            "Input size (MB): 0.01\n",
            "Forward/backward pass size (MB): 15.27\n",
            "Params size (MB): 43.70\n",
…
